.dart_tool/chrome-device/Default/optimization_guide_prediction_model_downloads/834b4973-2567-4b7c-9606-9d5e93519374/model.tflite (tflite, 67216 bytes, 5 tensors)

dnn/hiddenlayer_1/bias/part_0 f4 [64]
0	0xbd21d95c	-0.03951393
1	0xbd0aaaa6	-0.03385415
2	0xbcf19545	-0.029490123
3	0xbb093fcc	-0.0020942567
4	0xbd0f0946	-0.034920953
5	0x3dcdcfc7	0.10049396
6	0xbcaa9e0e	-0.02082732
7	0xbcbe1f1f	-0.0232082
8	0xbbef0913	-0.007294783
9	0xbd25bf50	-0.040465653
10	0x3de09831	0.10966528
11	0xbc4e2d1c	-0.012583997
12	0x3de97056	0.113983795
13	0x3c31e4ff	0.01085782
14	0x3c899885	0.01679636
15	0x3d366727	0.044531967
16	0xbbace434	-0.0052762274
17	0xbcbc18d3	-0.022961056
18	0xbcf58bb9	-0.029973852
19	0x39932d03	0.0002807156
20	0xbda356e9	-0.07975561
21	0x3da23fb1	0.079223044
22	0xbc9446fd	-0.018100256
23	0xb97c9039	-0.0002408632
24	0xbd7718db	-0.06032644
25	0x3d9e2b7b	0.07723137
26	0xbc77e747	-0.015130824
27	0xbc08d890	-0.008352414
28	0x3ca309a5	0.01990206
29	0x3c4f7c10	0.012663856
30	0x3a2402e3	0.00062565337
31	0x3d8c0738	0.06837314
32	0x3d7c67c6	0.061622404
33	0xbc2b42e5	-0.010452961
34	0x3c84a941	0.016193988
35	0xbd292ea9	-0.041304264
36	0xbd6d855c	-0.05798851
37	0xba0cf3b9	-0.00053768937
38	0x3d58effc	0.052963242
39	0x3d18ba28	0.037286907
40	0xbb528684	-0.0032123635
41	0xbd0239b2	-0.031793304
42	0x3d3cab47	0.04606178
43	0xbd0da562	-0.03458155
44	0xbca27241	-0.019829871
45	0xbd65974c	-0.05605249
46	0x3dbf9b6f	0.093558185
47	0xbd004f78	-0.031325787
48	0x3d00cac0	0.031443357
49	0xbb03fb6e	-0.0020138877
50	0xbd28af5d	-0.041182864
51	0xbd79cd73	-0.060986947
52	0x3d09193f	0.033471342
53	0x3c85cc9a	0.016332913
54	0x3963ccfe	0.00021724773
55	0x3cabf451	0.020990523
56	0xbc8a91c9	-0.016915219
57	0x3dd863ec	0.105659336
58	0x3d3b6a2f	0.04575556
59	0x3c0f4e8f	0.008746757
60	0xbd58f8ab	-0.052971523
61	0xbc4574e6	-0.012051797
62	0xbc23687f	-0.009973644
63	0xbd3a34f9	-0.045460675

dnn/hiddenlayer_0/bias/part_0 f4 [128]
0	0x3d71bee7	0.05901995
1	0x3d25c943	0.04047514
2	0xbc77a618	-0.015115283
3	0xbbca54eb	-0.006174674
4	0x3d5a30f6	0.05326935
5	0x3d623945	0.055230398
6	0x3d197198	0.037461847
7	0x3ca787bd	0.020450467
8	0xbd8fe3c7	-0.07025867
9	0xbcc593c5	-0.024118314
10	0x3e0852a9	0.13312782
11	0xbc234247	-0.009964532
12	0x3c491105	0.012272124
13	0x3d1351e9	0.035966787
14	0x3c7fa35e	0.015602915
15	0xbd4151da	-0.0471972
16	0xba91bf67	-0.0011119664
17	0xbd2a1b1c	-0.04152976
18	0xbd664bee	-0.056224756
19	0x3da129cf	0.078693025
20	0xbd070065	-0.03295936
21	0xbb8c0a08	-0.0042736568
22	0x3dc377c9	0.095443316
23	0xbcea6bc1	-0.028615834
24	0x3d8eba47	0.06969123
25	0x3c801206	0.015633594
26	0xbc67dc2e	-0.014151616
27	0xbca3a1dd	-0.019974643
28	0x3ca3b74e	0.019984867
29	0x3c6f2394	0.014595885
30	0xbd40b55e	-0.047047965
31	0x3c911a7f	0.01771283
32	0xbcf22fe4	-0.029563852
33	0xbcc46ea2	-0.023978535
34	0x3da5a850	0.08088744
35	0xbd599913	-0.0531245
36	0x3d6d712a	0.05796925
37	0x3d920d80	0.07131481
38	0x3d824303	0.06360438
39	0x3b8387ab	0.0040139756
40	0xbcf340c8	-0.029693976
41	0xbd6d3bdf	-0.057918426
42	0xbd93b53a	-0.072123006
43	0x3d58c776	0.052924596
44	0xbca510ea	-0.020149667
45	0x3bc795b6	0.006090845
46	0x3da9e918	0.08296412
47	0x3da35a1f	0.079761736
48	0xbdc149ad	-0.09437881
49	0x3b3097e5	0.0026946005
50	0xbd69c024	-0.057068005
51	0x3dbb0158	0.09131116
52	0x3d583cac	0.052792236
53	0xbbe7e9b9	-0.0070774225
54	0xbdf1d6a7	-0.1180852
55	0xbd8ea2ca	-0.06964643
56	0xbda13ed7	-0.07873314
57	0x3c3004b8	0.010743313
58	0xbda2522f	-0.079258315
59	0x3cb24356	0.021760624
60	0xbcb9c3cb	-0.02267637
61	0xbe15455c	-0.1457724
62	0xbc2bf98b	-0.010496507
63	0x3dbb4667	0.091442876
64	0xbcfec826	-0.031101298
65	0xbe582d24	-0.2111097
66	0x3d62e4e2	0.05539406
67	0x3cca42ae	0.024689998
68	0xbd4a8532	-0.04944343
69	0xbb751ccc	-0.0037401197
70	0x3cd3c8a3	0.025852507
71	0xbcbe3ad5	-0.023221413
72	0xbd8beded	-0.0683249
73	0x3d2165f6	0.03940388
74	0xbc26ff0b	-0.010192643
75	0x3d63b0f3	0.055588674
76	0xbc477a0e	-0.012175096
77	0xbd7ffcf2	-0.062497087
78	0xbd13a62a	-0.03604714
79	0xbd28aaf1	-0.041178647
80	0xbdffa06b	-0.12481769
81	0x3bf22cbb	0.007390586
82	0xbbef01e8	-0.0072939284
83	0x3e045c22	0.12925771
84	0xbd1a2ae1	-0.03763855
85	0x3d06ef13	0.032942843
86	0xbcfca36f	-0.03083965
87	0xbd5b8a17	-0.05359849
88	0x3c2d79d7	0.010588131
89	0xbaf810c4	-0.0018925895
90	0x3d6fe403	0.05856706
91	0x3d0a4371	0.033755723
92	0xbcebd259	-0.028786825
93	0x3d088d98	0.03333816
94	0x3d09bd8c	0.03362803
95	0x3cb1d39f	0.021707354
96	0x3d51f00c	0.051254317
97	0xbdd49149	-0.103792734
98	0x3cc8b2bd	0.024499292
99	0xbc8500a2	-0.016235653
100	0x3d16097a	0.03663013
101	0xbc28dfae	-0.010307236
102	0xbc25a1c3	-0.010109368
103	0x3c10d149	0.00883896
104	0xbce4936f	-0.027902333
105	0x3d5fc681	0.054632667
106	0xbc19af3b	-0.009380157
107	0x3c818489	0.015810268
108	0x3c8f1d43	0.017470008
109	0xbcc0ea8c	-0.02354934
110	0xbc4c6cf6	-0.01247715
111	0xbce2b8f5	-0.027676085
112	0x3d5abf9f	0.0534054
113	0xbd09c81c	-0.033638105
114	0xbd799d77	-0.060941186
115	0x3d64ea47	0.055887487
116	0x3c42343a	0.011853272
117	0x3d9e404b	0.07727107
118	0x3d05766d	0.032583643
119	0xbc309d2a	-0.010779658
120	0xbd11e9a0	-0.035623193
121	0xbca540a9	-0.020172434
122	0xbc6d4049	-0.014480659
123	0x3c96444f	0.018343119
124	0xbd2b649b	-0.04184399
125	0x3d2a771f	0.04161751
126	0x3dd8f5d2	0.105937615
127	0xbd846db0	-0.06466234

dnn/hiddenlayer_0/MatMul f4 [128, 12]
0	0xbdd9364f	-0.10606062
1	0x3e4775b2	0.19478491
2	0x3dda61f3	0.106632136
3	0x3da17f76	0.07885639
4	0xbe114651	-0.1418698
5	0x3e078149	0.13232912
6	0x3d6233d7	0.05522522
7	0xbdc64cca	-0.09682615
8	0xbd09c485	-0.03363468
9	0xbdb4e1ff	-0.08832168
10	0xbdb27522	-0.087137476
11	0xbe71c2e7	-0.23609506
12	0x3ca01643	0.019541865
13	0xbca8f320	-0.020623744
14	0x3e5d8d99	0.21636046
15	0xbdc4af6c	-0.096037716
16	0xbd9e546a	-0.077309445
17	0x3e1324f5	0.14369567
18	0x3d85e54b	0.06537875
19	0x3dad8283	0.08472159
20	0x3abcaa61	0.0014394039
21	0xbda0f81b	-0.07859822
22	0xbe1c8bde	-0.1528773
23	0x3cbbaf67	0.022910787
24	0xbe4822fa	-0.19544592
25	0xbdc38099	-0.095460124
26	0xbdb8d364	-0.090246946
27	0x3df73040	0.1206975
28	0x3d4586b0	0.04822415
29	0xbdefd239	-0.11710019
30	0x3e0ab277	0.13544641
31	0x3daac148	0.08337647
32	0xbde867dd	-0.11347935
33	0x3db9c78d	0.090712644
34	0xbdad0559	-0.084482856
35	0xbe435ade	-0.19077632
36	0x3dbc0761	0.09181095
37	0x3e1179e3	0.14206652
38	0x3db56cfe	0.08858679
39	0x3c1d821c	0.00961354
40	0x3dc45aa5	0.095876016
41	0x3e6a2c9e	0.22868583
42	0x3dfc5104	0.1232014
43	0xbe19f3e3	-0.15034442
44	0xbc4675ff	-0.012113093
45	0xbc3a80ab	-0.011383216
46	0xbe821f97	-0.25414726
47	0x3e6f3857	0.23361336
48	0xbbc45279	-0.005991277
49	0x3e232a6f	0.15934156
50	0xbd779ea6	-0.060454033
51	0xbc050a1d	-0.008120087
52	0x3daab95d	0.083361365
53	0x3be794e2	0.0070673088
54	0x3d7a7f28	0.061156422
55	0xbc13d586	-0.009023076
56	0x3e100d9e	0.14067695
57	0xbe8e6155	-0.27808633
58	0x3e11731d	0.14204068
59	0x3d899756	0.06718318
60	0xbd2e0044	-0.042480722
61	0x3d344641	0.04401231
62	0xbdad8c80	-0.08474064
63	0xbd137b69	-0.036006365
64	0x3dd55e39	0.10418362
65	0xbd4b119e	-0.049577348
66	0xbd9457b8	-0.072432935
67	0x3e0da14d	0.13831063
68	0xbe50d4a6	-0.20393619
69	0xbd42d44c	-0.047565743
70	0x3e350c05	0.17680366
71	0xbe284a68	-0.16434634
72	0x3e36c566	0.17848739
73	0xbde72427	-0.112861924
74	0x3c38dc89	0.011283048
75	0xbe194735	-0.1496857
76	0x3e064d3e	0.13115403
77	0x3e009fb3	0.1256092
78	0x3dc829a4	0.09773567
79	0x3e0b5c7e	0.13609502
80	0x3e2185da	0.15773717
81	0xbe22c0d6	-0.15893874
82	0xbdf7fae7	-0.12108403
83	0x3de83ae8	0.113393605
84	0xbcc58229	-0.024109917
85	0x3dbf2cb5	0.09334699
86	0xba95024c	-0.0011368482
87	0xbe4d5540	-0.20052052
88	0x3d3b78cc	0.045769498
89	0xbe523ed7	-0.20531784
90	0x3df12db5	0.11776296
91	0xbe161714	-0.14657241
92	0x3e43c594	0.19118339
93	0xbd54dd8c	-0.051969096
94	0xbdcd7ba2	-0.10033347
95	0xbddb6981	-0.10713483
96	0x3e187fe5	0.14892538
97	0xbe0c25e7	-0.13686334
98	0xbd7f04c7	-0.062260415
99	0xbddd4ff5	-0.10806266
100	0x3d3cbc2f	0.046077903
101	0xbd5daa47	-0.054117467
102	0xba93536b	-0.001124007
103	0xbdd6d892	-0.10490526
104	0xbd7e7516	-0.06212338
105	0xbd85b5e8	-0.065288365
106	0xbe12518c	-0.1428892
107	0xbd9c9843	-0.07646229
108	0xbd1960d9	-0.037445877
109	0xbd8f308a	-0.0699168
110	0x3bf55d66	0.0074879406
111	0xbc380371	-0.011231289
112	0xbe3765ca	-0.17909923
113	0x3d3ee198	0.04660186
114	0x3e31c0b3	0.17358665
115	0x3e25306d	0.16131754
116	0xbdef1110	-0.11673176
117	0xbe71e686	-0.23623094
118	0x3db74af7	0.08949845
119	0x3d365fa7	0.044524815
120	0x3e04b1bf	0.1295843
121	0xbde6b1b7	-0.11264365
122	0xbd5c8fb0	-0.05384797
123	0x3d41c099	0.047302816
124	0x3dc84ddf	0.09780478
125	0x3d0ca3bd	0.03433584
126	0x3d7aa93d	0.061196554
127	0x3c1db115	0.009624739
128	0xbc4025c7	-0.011727757
129	0x3cdf346f	0.027246682
130	0x3e97761a	0.29582292
131	0xbe2142d3	-0.15748148
132	0xbe8407df	-0.25787255
133	0xbda40b82	-0.080100074
134	0x3e4f6f59	0.2025732
135	0x3dd404b2	0.10352458
136	0xbe1d324c	-0.15351218
137	0xbe07e587	-0.13271151
138	0x3e349090	0.17633271
139	0x3e2fc971	0.17166688
140	0x3d38857f	0.045049187
141	0xbd9801b3	-0.07422199
142	0x3e17f023	0.14837699
143	0xbe0de465	-0.13856657
144	0xbdcdd00d	-0.10049448
145	0xbd6dc3bf	-0.058048006
146	0x3df5215c	0.119692534
147	0xbde87ba8	-0.113517106
148	0xbcd558e4	-0.026043363
149	0xbd8ebc9d	-0.06969569
150	0xbdc05e6e	-0.09393011
151	0x3c0a1172	0.008427011
152	0x3d8af4f7	0.067850046
153	0xbcc8ecac	-0.024526916
154	0x3e3edf69	0.18639912
155	0x3ded3826	0.11582975
156	0x3e3fe358	0.18739069
157	0x3c9f1337	0.019418342
158	0x3dd26151	0.10272468
159	0xbe4ed538	-0.20198524
160	0x3dbca1ca	0.09210546
161	0x3d7661a2	0.060151704
162	0x3dd446d9	0.103650756
163	0xbe327522	-0.17427495
164	0xbdd006c0	-0.101575375
165	0x3c37d824	0.011220966
166	0x3dc4d387	0.09610658
167	0x3c5642c4	0.013077442
168	0xbe1e798b	-0.15476052
169	0xb911bc84	-0.00013898505
170	0xbce24aa5	-0.027623484
171	0x3ca4e6e7	0.020129634
172	0x3e385b2c	0.1800353
173	0xbe0a780d	-0.13522358
174	0xbd2e17db	-0.04250322
175	0xbda52a00	-0.080646515
176	0x3c831668	0.016001895
177	0x3cd0f104	0.02550555
178	0x3d39cb00	0.04535961
179	0xbe7c0f0f	-0.2461512
180	0x3e681ec6	0.22667989
181	0xbdb0f49d	-0.08640406
182	0xbe24daf8	-0.16099155
183	0x3d9d9ce6	0.076959416
184	0xbe74cf32	-0.23907164
185	0x3d2c234a	0.04202584
186	0x3d336893	0.0438009
187	0xbe2f2c2f	-0.17106698
188	0x3e6a60e6	0.22888526
189	0xbd144788	-0.03620103
190	0xbca52d6f	-0.020163266
191	0xbba6ed96	-0.0050942404
192	0x3e41fa5f	0.18943165
193	0xbe039dc8	-0.12853158
194	0x3d3c9526	0.046040677
195	0xbcfb798b	-0.030697605
196	0xbdd9fc36	-0.106438085
197	0xbe5edba8	-0.2176348
198	0x3e4a30fd	0.1974525
199	0x3db2beb9	0.08727784
200	0x3bb8993c	0.0056335013
201	0x3e552bb1	0.20817448
202	0xbe14d988	-0.14536107
203	0x3e1dc4cc	0.15407103
204	0x3e2f4091	0.17114474
205	0xbe602ee2	-0.21892884
206	0xbc303aed	-0.0107562365
207	0x3ddcba76	0.10777752
208	0xbd5465f3	-0.05185504
209	0x3cee95a6	0.029124092
210	0x3d5b9d03	0.053616535
211	0x3de10fae	0.10989319
212	0xbe12f045	-0.14349468
213	0xbbfb6abf	-0.0076726372
214	0x3dd3e456	0.10346286
215	0xbd9b136a	-0.07572062
216	0x3bc1e0c6	0.0059166877
217	0x3da5676d	0.080763675
218	0xbe88f521	-0.2674952
219	0xbcf30498	-0.029665276
220	0x3df1a139	0.11798329
221	0x3d70955a	0.058736183
222	0xbe309700	-0.17245102
223	0x3dac4df7	0.08413308
224	0x3c03627a	0.008019084
225	0xbd077c0c	-0.033077285
226	0x3e1d24e5	0.15346105
227	0xbdeac0d3	-0.114625596
228	0xbe1f573e	-0.15560624
229	0x3df0d486	0.11759286
230	0xbe8d742e	-0.276277
231	0xbe294924	-0.16531807
232	0x3da65ebe	0.081235394
233	0xbd84b9ef	-0.064807765
234	0xbd87bfa6	-0.06628351
235	0x3dfa60c4	0.12225488
236	0x3d5814f7	0.05275437
237	0x3dc4134a	0.095739916
238	0x3e215dcb	0.15758435
239	0xbe503d30	-0.20335841
240	0xbdc0fd8d	-0.09423361
241	0xbd9ec717	-0.07752817
242	0x3e6067b4	0.2191456
243	0xbd564586	-0.052312396
244	0xbda8fc3f	-0.08251237
245	0xbaf1a8c0	-0.0018437132
246	0xbd1066fc	-0.035254464
247	0xbe39cffb	-0.18145745
248	0xbc4ef819	-0.012632393
249	0x3e278af9	0.16361608
250	0x3c319d1c	0.01084068
251	0xbd0effa5	-0.03491177
252	0x3e057cc9	0.13035883
253	0xbc5f8357	-0.013642154
254	0x3e9132b4	0.28358996
255	0x3cbd44c8	0.023104087

dnn/hiddenlayer_1/MatMul f4 [64, 128]
0	0x3d135291	0.035967413
1	0xbc27ce38	-0.0102420375
2	0xbe2afb4b	-0.16697423
3	0xbe30b941	-0.17258169
4	0xbe0a86c8	-0.13527977
5	0x3cfb8cf9	0.03070687
6	0xbe310366	-0.17286453
7	0x3cda752d	0.026667202
8	0xbc4e2e73	-0.012584317
9	0xbd7e7049	-0.062118802
10	0x3dcea31d	0.10089705
11	0x3e3dc267	0.1853119
12	0xbe1824db	-0.14857809
13	0xbcad2a09	-0.021138208
14	0xbc388bb6	-0.011263778
15	0x3c7fe040	0.01561743
16	0xbcc3197d	-0.023815865
17	0xbda75ad2	-0.081716195
18	0x3d999edc	0.07501003
19	0x3e28716d	0.16449519
20	0xbe0c5e1d	-0.13707776
21	0xbdfa5dd9	-0.12224931
22	0xbdb51f54	-0.08843866
23	0x3e4456ea	0.1917378
24	0xbd34d81a	-0.044151403
25	0x3e1ae6e7	0.15127145
26	0x3d7cae15	0.061689455
27	0x3e12f932	0.14352873
28	0xbe349869	-0.17636265
29	0x3e1cbae2	0.15305665
30	0x3d9ebe2a	0.07751115
31	0xbdc38d64	-0.095484525
32	0x3df2eec5	0.11861948
33	0xbd65c6fb	-0.056097966
34	0x3ce067ec	0.027393304
35	0xbd4cbcd4	-0.049984768
36	0x3e02a2ad	0.12757368
37	0x3dc10c67	0.09426194
38	0x3d8797ef	0.06620776
39	0xbd2c0dd9	-0.042005394
40	0x3ddf6221	0.109073885
41	0x3e0b6974	0.13614446
42	0x3de34b24	0.11098316
43	0xbe45cd0c	-0.193165
44	0x3dfa618f	0.12225639
45	0x3d9740ce	0.073854074
46	0xbdc4e585	-0.0961409
47	0xbe22ab93	-0.15885763
48	0x3daacd5f	0.08339953
49	0xbdbecb74	-0.09316149
50	0x3d75e4be	0.0600326
51	0x3d8d2ba2	0.06893088
52	0x3cc8000c	0.024414085
53	0x3e0b836d	0.13624354
54	0x3d50375d	0.05083405
55	0xbc4d71ee	-0.01253937
56	0x3d3f2e74	0.04667516
57	0x3e26639e	0.16248938
58	0x3da43ad1	0.08019031
59	0xbe1d7451	-0.15376402
60	0x3d0acc71	0.033886377
61	0xbc9123d5	-0.017717281
62	0x3e3d8186	0.1850644
63	0xbdf2248d	-0.11823378
64	0x3daf8c2f	0.0857166
65	0xbe396c98	-0.18107831
66	0x3c864ee8	0.016395047
67	0x3e3c23f3	0.18373089
68	0x3cfdc0bc	0.030975692
69	0x3e2bdff1	0.16784646
70	0x3d9ee1e3	0.07757928
71	0xbe13368b	-0.14376275
72	0xbd783d07	-0.060605075
73	0xbd8db960	-0.06920123
74	0x3e3d5ab5	0.18491633
75	0xbe36f7fc	-0.17868036
76	0xbe5049d9	-0.2034067
77	0xbe3df0be	-0.18548867
78	0xbdb1e9f5	-0.08687202
79	0xbdfc0b0a	-0.12306793
80	0x3e4f037b	0.20216171
81	0xbb480b9c	-0.0030524498
82	0x3e4ce860	0.20010519
83	0x3da1cef7	0.079008035
84	0x3db4f8f8	0.088365495
85	0x3dd8f309	0.1059323
86	0x3de9b010	0.114105344
87	0x3e2e8ae2	0.17045167
88	0x3dcf128c	0.101109594
89	0xbe083419	-0.13301124
90	0x3e256cd6	0.16154799
91	0x3d1dd602	0.038534172
92	0x3ba500e5	0.005035507
93	0xbe17fed9	-0.1484331
94	0xbe35feea	-0.17773023
95	0xbbdcdce0	-0.0067401975
96	0x3e3fa20e	0.18714163
97	0xbe2769dc	-0.16348976
98	0xbddf3b3e	-0.108999714
99	0x3db38725	0.08766011
100	0x3da6d648	0.0814634
101	0xbe351a42	-0.17685798
102	0x3e629f23	0.22131018
103	0xbda1468f	-0.07874786
104	0x3bdac965	0.00667684
105	0xbe4d917d	-0.2007503
106	0xbda1c485	-0.07898811
107	0x3e045919	0.12924613
108	0xbdbfd53b	-0.09366842
109	0x3c0eb377	0.00870978
110	0xbc96f862	-0.018428985
111	0xbd9c3f06	-0.07629208
112	0xbdd4f72f	-0.10398709
113	0xbda543fb	-0.08069607
114	0x3d626bff	0.055278774
115	0xbd63abfc	-0.05558394
116	0x3aa791d5	0.001278455
117	0xbdcb643e	-0.09931229
118	0x3e1237e6	0.14279136
119	0x3dd4150a	0.103555754
120	0xbd90e0c9	-0.07074124
121	0xbd78942d	-0.060688186
122	0xbd6f9ba2	-0.058498032
123	0xbd8ed78d	-0.06974707
124	0xbc197619	-0.009366536
125	0xbdcbed88	-0.09957415
126	0xbcffedb2	-0.031241272
127	0xbe28ec38	-0.1649636
128	0x3c536ccf	0.01290436
129	0x3d29abaa	0.041423477
130	0xbe0e9e11	-0.13927485
131	0x3d955bf3	0.072929285
132	0x3db042b2	0.08606471
133	0x3bd8fe9e	0.0066221496
134	0x3da62bf3	0.081138514
135	0x3d2dfccb	0.04247741
136	0xbd635df1	-0.05550951
137	0xbc6783a6	-0.0141305085
138	0xbd341a73	-0.043970536
139	0x3e147c5e	0.14500567
140	0xbd94e285	-0.07269768
141	0xbe13f394	-0.14448386
142	0x3decc6b6	0.115613386
143	0x3ca88498	0.020571038
144	0x3d0141ee	0.031557016
145	0x3d87fe84	0.06640342
146	0x3e1ff271	0.15619828
147	0x3e39571b	0.18099634
148	0x39fc454d	0.0004811682
149	0x3e0087f8	0.12551868
150	0x3d3221ab	0.04348914
151	0x3e338a3f	0.17533205
152	0xbc91ddb7	-0.017805917
153	0x3e1ebf03	0.15502553
154	0xbe14494c	-0.14481086
155	0xbdfb758b	-0.12278279
156	0x3e3b41b4	0.18286783
157	0xbe08ece7	-0.13371621
158	0xbd20155b	-0.039082866
159	0x3da06df1	0.0783347
160	0x3e2617df	0.16220044
161	0xbdf3c08c	-0.1190196
162	0xbd8ccf60	-0.06875491
163	0xbe227f1a	-0.15868798
164	0xbe2fba9b	-0.17161028
165	0x3de626f1	0.11237896
166	0xbe08d530	-0.13362575
167	0xbda67bea	-0.081291035
168	0x3be43553	0.0069643646
169	0x3e15b450	0.14619565
170	0x3c6617cd	0.0140437605
171	0xbe3a6b52	-0.18205002
172	0x3d58b628	0.052908093
173	0xbd8c8ae5	-0.068624295
174	0xbdd30b08	-0.103048384
175	0xbd8a1a9d	-0.06743357
176	0x3c74422e	0.014908357
177	0x3da1f3bb	0.07907816
178	0xbdf145cf	-0.11780893
179	0x3dcb93da	0.0994031
180	0x3cb7dbe2	0.022443715
181	0x3e16e0e0	0.1473422
182	0x3e018cea	0.1265141
183	0x3e2ebab9	0.17063417
184	0xbe3b406c	-0.18286294
185	0xbcfc9590	-0.030833036
186	0xbe22bb4d	-0.15891762
187	0xbd3595e5	-0.044332404
188	0xbdaa2074	-0.08306971
189	0x3cf3f5f7	0.029780371
190	0xbdeea610	-0.11652768
191	0x3d2b7f47	0.041869428
192	0x3e200a15	0.15628846
193	0x3e00df91	0.12585284
194	0x3d3fafb4	0.046798423
195	0xbdc7931a	-0.09744854
196	0xbde81e8d	-0.11333952
197	0xbde78755	-0.113051094
198	0xbe3962a8	-0.1810404
199	0x3ddd72ed	0.10812936
200	0xbdba1f82	-0.09088041
201	0xbde56ad7	-0.11202019
202	0x3dfbad33	0.122888945
203	0xbe0db2af	-0.13837694
204	0x3c48245f	0.012215703
205	0x3d5ebf17	0.054381456
206	0x3e070bcb	0.13188092
207	0x3e09c76e	0.13454983
208	0x3e0401cd	0.12891312
209	0xbcc5e338	-0.024156198
210	0xbd708f27	-0.05873027
211	0x3d3a0ae4	0.045420542
212	0xbe2a085d	-0.16604753
213	0x3d9bc7d7	0.07606476
214	0xbca4c808	-0.020114914
215	0xbd920439	-0.07129712
216	0xbdbecc8f	-0.0931636
217	0x3ce1ab40	0.027547479
218	0x3d7f6371	0.062350694
219	0x3e104e22	0.14092305
220	0xbe3a020c	-0.18164843
221	0x3daad3f6	0.083412096
222	0xbbfbaf12	-0.007680782
223	0x3d8de0a3	0.06927612
224	0x3dbb6f36	0.09152071
225	0xbe3873c3	-0.1801291
226	0xbdf595eb	-0.11991485
227	0xbcd0f5cc	-0.02550783
228	0xbdd794f6	-0.10526459
229	0x3d0197c6	0.031638883
230	0xbe03ec1b	-0.12883036
231	0xbdbaae34	-0.09115258
232	0xbdf44702	-0.11927606
233	0x3e02821a	0.12744942
234	0x3bd89582	0.0066096196
235	0x3d4710e3	0.04860009
236	0x3e3a29dc	0.1818003
237	0xbd966269	-0.07342989
238	0x3d9a4803	0.075332664
239	0xbd17881d	-0.036995042
240	0xbe1909ec	-0.14945191
241	0x3ddd1a63	0.107960485
242	0x3de81d82	0.11333753
243	0x3e09217a	0.13391677
244	0x3d529f3c	0.05142139
245	0x3e411863	0.18856959
246	0xbd40a92a	-0.047036327
247	0x3df09f92	0.117491856
248	0xbde7dc56	-0.113213226
249	0x3c36f8d0	0.01116772
250	0x3da22a34	0.07918206
251	0x3d1f610c	0.03891091
252	0x3c267505	0.010159736
253	0xbe22c84a	-0.15896717
254	0x3ddcd611	0.107830174
255	0xbd0492bc	-0.0323665

dnn/logits/MatMul f4 [1, 64]
0	0xbe7f1067	-0.24908601
1	0xbe22341a	-0.15840188
2	0xbea43b90	-0.32076693
3	0xbe6141fa	-0.21997824
4	0xbe12d78a	-0.14340034
5	0x3ebcb11c	0.36853874
6	0xbea4e935	-0.32209173
7	0xbd5e19ce	-0.054223828
8	0x3d671735	0.056418616
9	0xbe970e5d	-0.29503146
10	0x3ec31264	0.38099968
11	0x3c711d41	0.014716447
12	0x3ea7841b	0.32717976
13	0x3d90fe1f	0.0707972
14	0x3e72d7cb	0.23715131
15	0x3e87eb61	0.26546767
16	0x3eb5ec1c	0.355317
17	0xbe888ef0	-0.26671553
18	0xbea62ab1	-0.32454446
19	0xbe83fb01	-0.25777438
20	0xbeb0b035	-0.34509435
21	0x3ed54aa7	0.41658518
22	0xbea03d6f	-0.3129687
23	0x3d1f371b	0.038870912
24	0xbeb45630	-0.35222006
25	0x3eacfdeb	0.33787474
26	0x3cd1ace7	0.025595142
27	0xbea101bf	-0.31446645
28	0x3eb7cc85	0.35898224
29	0xbe1960bb	-0.14978306
30	0xbaaad876	-0.0013034481
31	0x3e5c1069	0.21490635
32	0x3e29f290	0.16596437
33	0x3caee6f7	0.021350367
34	0xbe2e82c6	-0.17042074
35	0xbdd667cc	-0.104690164
36	0x3e92c869	0.28668526
37	0xbdaf8f64	-0.085722715
38	0x3e9da9ca	0.307936
39	0x3e688aca	0.22709194
40	0xbe1ed501	-0.15510942
41	0xbe43b51f	-0.19112061
42	0x3e4bb303	0.19892506
43	0xbe630a72	-0.22171953
44	0x3c0afbe0	0.008482903
45	0xbe9b9cd7	-0.30393097
46	0x3e8b0776	0.2715413
47	0x3e511726	0.20418987
48	0x3e117d58	0.14207971
49	0xbdf224b4	-0.11823407
50	0x3e2bc732	0.16775206
51	0xbe9b78a2	-0.30365473
52	0xbda96e58	-0.082729995
53	0x3ce1957d	0.027537102
54	0xbecd56f4	-0.40105402
55	0x3e8b1b71	0.27169374
56	0xbdb396c6	-0.08768992
57	0x3eb26d52	0.3484903
58	0x3e0c7fae	0.13720581
59	0x3e17316b	0.14764945
60	0xbe8e013d	-0.2773532
61	0xbe2a82fc	-0.16651529
62	0xbe7e3f03	-0.24828725
63	0xbe4cf210	-0.20014215
